…
   "metadata": {},
   "source": [
    "## Unlike Tensorflow, in Pytorch we need to explicitly set the device (GPU/CPU) to be used.\n",
    "## As we see above 19 convolution layers, the later layers having high large number of filters (512)"
   ]
  },
  {
   "cell_type": "code",
   "execution_count": 16,
   "metadata": {
    "colab": {
     "base_uri": "https://localhost:8080/",
     "height": 733
    },
    "colab_type": "code",
    "id": "LPwgbTMb7zva",
    "outputId": "f4b72588-4d47-4b3b-cc67-03bc172ebc57"
   },
   "outputs": [
    {
     "data": {
      "text/plain": [
       "Sequential(\n",
       "  (0): Conv2d(3, 64, kernel_size=(3, 3), stride=(1, 1), padding=(1, 1))\n",
       "  (1): ReLU(inplace)\n",
       "  (2): Conv2d(64, 64, kernel_size=(3, 3), stride=(1, 1), padding=(1, 1))\n",
       "  (3): ReLU(inplace)\n",
       "  (4): MaxPool2d(kernel_size=2, stride=2, padding=0, dilation=1, ceil_mode=False)\n",
       "  (5): Conv2d(64, 128, kernel_size=(3, 3), stride=(1, 1), padding=(1, 1))\n",
       "  (6): ReLU(inplace)\n",
       "  (7): Conv2d(128, 128, kernel_size=(3, 3), stride=(1, 1), padding=(1, 1))\n",
       "  (8): ReLU(inplace)\n",
       "  (9): MaxPool2d(kernel_size=2, stride=2, padding=0, dilation=1, ceil_mode=False)\n",
       "  (10): Conv2d(128, 256, kernel_size=(3, 3), stride=(1, 1), padding=(1, 1))\n",
       "  (11): ReLU(inplace)\n",
       "  (12): Conv2d(256, 256, kernel_size=(3, 3), stride=(1, 1), padding=(1, 1))\n",
       "  (13): ReLU(inplace)\n",
       "  (14): Conv2d(256, 256, kernel_size=(3, 3), stride=(1, 1), padding=(1, 1))\n",
       "  (15): ReLU(inplace)\n",
       "  (16): Conv2d(256, 256, kernel_size=(3, 3), stride=(1, 1), padding=(1, 1))\n",
       "  (17): ReLU(inplace)\n",
       "  (18): MaxPool2d(kernel_size=2, stride=2, padding=0, dilation=1, ceil_mode=False)\n",
       "  (19): Conv2d(256, 512, kernel_size=(3, 3), stride=(1, 1), padding=(1, 1))\n",
       "  (20): ReLU(inplace)\n",
       "  (21): Conv2d(512, 512, kernel_size=(3, 3), stride=(1, 1), padding=(1, 1))\n",
       "  (22): ReLU(inplace)\n",
       "  (23): Conv2d(512, 512, kernel_size=(3, 3), stride=(1, 1), padding=(1, 1))\n",
       "  (24): ReLU(inplace)\n",
       "  (25): Conv2d(512, 512, kernel_size=(3, 3), stride=(1, 1), padding=(1, 1))\n",
       "  (26): ReLU(inplace)\n",
       "  (27): MaxPool2d(kernel_size=2, stride=2, padding=0, dilation=1, ceil_mode=False)\n",
       "  (28): Conv2d(512, 512, kernel_size=(3, 3), stride=(1, 1), padding=(1, 1))\n",
       "  (29): ReLU(inplace)\n",
       "  (30): Conv2d(512, 512, kernel_size=(3, 3), stride=(1, 1), padding=(1, 1))\n",
       "  (31): ReLU(inplace)\n",
       "  (32): Conv2d(512, 512, kernel_size=(3, 3), stride=(1, 1), padding=(1, 1))\n",
       "  (33): ReLU(inplace)\n",
       "  (34): Conv2d(512, 512, kernel_size=(3, 3), stride=(1, 1), padding=(1, 1))\n",
       "  (35): ReLU(inplace)\n",
       "  (36): MaxPool2d(kernel_size=2, stride=2, padding=0, dilation=1, ceil_mode=False)\n",
       ")"
      ]
     },
     "execution_count": 16,
     "metadata": {
      "tags": []
     },
     "output_type": "execute_result"
    }
   ],
   "source": [
    "#we use cuda.is_available() command to get CUDA enabled GPU if it's available else we use CPU\n",
…
